training/models/model.tflite (tflite, 147532 bytes, 10 tensors)

sequential_47/conv2d_84/BiasAdd/ReadVariableOp f4 [32]
-0.07827736 -0.047678847 0.011687879 -0.06108081 -0.010199554 -0.13658707 -0.15281145 -0.07738185
-0.09733194 -0.14592989 -0.023811722 -0.15640385 -0.101445846 -0.060715824 -0.16289167 -0.0777446
-0.09759516 -0.013682575 -0.13002017 0.024782924 -0.14549494 -0.06010449 -0.11927229 -0.15868936
-0.065838404 -0.13747187 -0.083864145 -0.084423415 -0.11941396 -0.16418566 -0.027528776 -0.030081829
00000000: e14f a0bd e54a 43bd 857e 3f3c df2f 7abd
00000010: 081c 27bc 7bdd 0bbe 9b7a 1cbe 607a 9ebd
00000020: f855 c7bd a56e 15be cd10 c3bc 5528 20be
00000030: d7c2 cfbd 28b1 78bd 13cd 26be 9038 9fbd
00000040: f9df c7bd e12c 60bc 0224 05be 8f05 cb3c
00000050: a0fc 14be 2030 76bd 0845 f4bd 777f 22be
00000060: 49d6 86bd 6dc5 0cbe f7c0 abbd 2fe6 acbd
00000070: 4e8f f4bd 4920 28be 0784 e1bc 2b6e f6bc

sequential_47/conv2d_85/BiasAdd/ReadVariableOp f4 [64]
-0.1384787 -0.03660217 -0.11923428 -0.1534292 -0.13760303 -0.2865199 -0.15172645 -0.29085067
-0.1823558 -0.18720084 -0.33068407 -0.15475716 -0.3053434 -0.16196267 -0.1321604 -0.17443673
-0.18588872 -0.19119465 -0.14581719 -0.19554158 -0.1455372 -0.060719162 -0.14272046 -0.12841974
-0.17647777 -0.250038 -0.16621865 -0.19556968 -0.08898779 -0.091005735 -0.36217397 -0.20206238
-0.1172078 -0.17495033 -0.0859695 -0.2918568 -0.2197578 -0.2090404 -0.16683532 -0.24589556
-0.12017287 -0.06515135 -0.121424645 -0.22998165 -0.08221215 -0.13680066 -0.20915486 -0.1208008
-0.16539189 -0.0941518 -0.10576778 -0.09822537 -0.07965346 -0.2045337 -0.15004754 -0.05830399
-0.18784171 -0.12214453 -0.14944133 -0.10487123 -0.15909952 -0.12752631 -0.20191112 -0.19396007
00000000: 5ccd 0dbe 28ec 15bd 1a31 f4bd 8b1c 1dbe
00000010: cfe7 0cbe bdb2 92be 2e5e 1bbe 61ea 94be
00000020: 7bbb 3abe 94b1 3fbe 6c4f a9be a978 1ebe
00000030: f855 9cbe 8bd9 25be 0e55 07be 8b9f 32be
00000040: 9d59 3ebe 88c8 43be 1a51 15be 0d3c 48be
00000050: b407 15be a8b4 78bd 5025 12be 7780 03be
00000060: 97b6 34be fb04 80be 3935 2abe 6b43 48be
00000070: 3b3f b6bd 3761 babd de6e b9be 71e9 4ebe
00000080: a50a f0bd 2e26 33be c710 b0bd 416e 95be
00000090: 3008 61be b00e 56be e1d6 2abe 0ccc 7bbe
000000a0: 321d f6bd 126e 85bd 7cad f8bd 4f80 6bbe
000000b0: d85e a8bd 7915 0cbe b12c 56be 6966 f7bd
000000c0: 7e5c 29be a9d2 c0bd c79c d8bd 622a c9bd
000000d0: 5a21 a3bd 4871 51be 10a6 19be 2ad0 6ebd
000000e0: 9459 40be e926 fabd 2607 19be bac6 d6bd
000000f0: fcea 22be 4296 02be cac1 4ebe 789d 46be

sequential_47/conv2d_84/Conv2D f4 [32, 3, 3, 1]
-0.079605415 0.0026466236 -0.15779443 0.22866747 0.23347333 0.019077988 -0.016920164 0.02578032
-0.08337229 -0.040908396 -0.12466562 0.055757813 -0.014729876 0.059410844 0.20470753 -0.08567575
0.017861176 0.270387 -0.11491705 -0.030529484 -0.1339633 -0.036225494 0.046046484 -0.051581103
-0.078971796 -0.092450805 -0.22208951 -0.05017585 0.03047034 -0.022171896 -0.15099138 0.20357919
0.049726788 -0.1379373 0.00039276108 0.013252109 0.13396135 0.08107689 -0.03330496 -0.09140906
0.028455457 0.21873185 -0.09010257 -0.123809956 -0.0013174398 -0.046712577 -0.088123806 -0.072577864
-0.01164411 -0.0064034592 -0.04095883 0.017752869 0.230881 0.022353217 -0.051523298 -0.065767825
0.024973562 -0.050741524 -0.018215034 0.112150446 -0.06035695 -0.06085585 0.18493952 0.15417457
-0.040398553 -0.06561018 0.018354103 -0.003698967 -0.09044571 0.17642051 -0.05872294 -0.09723063
0.04048438 0.12470808 0.20838949 -0.06859605 -0.1500532 -0.050488397 0.07213675 0.10565533
0.0021414834 -0.04423285 0.11229109 0.20571186 -0.076877855 -0.0464043 0.07735145 -0.11788128
-0.073730275 -0.103167556 -0.11875458 -0.025200201 -0.18648964 -0.08621186 -0.013147495 0.032250684
0.08617602 0.039735254 0.23119241 0.16685566 -0.092448615 -0.058794633 0.14867839 -0.023964379
-0.037145507 0.05442672 -0.07128339 -0.044998493 0.081320874 -0.10314381 0.07769717 0.28451937
0.008963597 -0.08006722 -0.025895866 -0.11573462 -0.07787118 -0.04654954 -0.09835046 -0.17157644
-0.033575233 0.1359388 0.14408317 -0.12336214 0.12143475 -0.048488066 -0.0009809367 0.18094888
0.2153852 -0.020860022 0.0113685345 -0.062401865 -0.05241939 -0.10175533 -0.15031011 -0.07878761
0.09126746 0.15222156 -0.09615069 0.06407736 0.094782546 -0.14989142 0.011063547 0.076618135
-0.08387979 -0.06158081 0.11037793 -0.077230714 0.073566854 0.19238888 -0.04173375 -0.054326467
-0.052231964 -0.0030808544 -0.1025212 -0.17483161 0.05087241 -0.067337185 -0.02756814 0.070766695
0.023815485 0.20692667 0.18541993 0.11790575 -0.14802629 0.14056887 0.08793179 -0.078373
-0.07610288 -0.018809486 -0.13965128 -0.09559475 -0.12620172 0.11635665 -0.16646016 -0.059394736
-0.04426401 0.08065116 0.0033719656 0.15945682 0.024158852 -0.07827294 -0.118216075 0.24051256
0.09998103 -0.11033053 0.08578925 -0.027402392 -0.071792915 0.08390513 0.028449327 -0.17106207
0.21983442 -0.068233974 -0.045211695 -0.063234545 -0.12161128 0.07876116 0.12565589 0.14803497
-0.075783595 0.037728637 0.083039984 -0.05984358 -0.08510297 -0.047488082 -0.093803465 -0.024511132
-0.082966596 -0.14038295 -0.02677127 0.008402908 0.030831885 -0.12537566 0.12329575 0.21164006
-0.08410087 -0.10276192 -0.088209435 0.053759936 0.019730574 -0.03228653 0.13245355 0.2327388
-0.105750956 0.13953564 0.21918811 0.028074274 -0.043193262 0.009680648 -0.017562533 -0.13286053
-0.10916693 -0.088070564 -0.008147475 -0.020993385 -0.0783139 0.165795 0.119895205 -0.07830526
0.10518287 0.0801556 -0.07558484 -0.19025445 0.12137375 -0.008892085 0.1915262 0.121266626
0.09936626 -0.08174426 0.0093548745 -0.12787113 -0.113259494 0.003906547 -0.019567626 -0.060043722
00000000: 2a08 a3bd fa72 2d3b dd94 21be ce27 6a3e
00000010: a213 6f3e 7149 9c3c 289c 8abc 4031 d33c
00000020: 17bf aabd 908f 27bd b050 ffbd 4e62 643d
00000030: 9455 71bc c958 733d da9e 513e c576 afbd
00000040: 9a51 923c 2a70 8a3e a159 ebbd f818 fabc
00000050: ad2d 09be 2f61 14bd 3d9b 3c3d b546 53bd
00000060: f7bb a1bd d956 bdbd 6f6b 63be 3185 4dbd
00000070: ef9c f93c d6a1 b5bc 7c9d 1abe 1077 503e
00000080: 51ae 4b3d 703f 0dbe 80eb cd39 601f 593c
00000090: 2a2d 093e a40b a63d c86a 08bd ac34 bbbd
000000a0: 6b1b e93c 3efb 5f3e b287 b8bd 1390 fdbd
000000b0: f2ad acba b055 3fbd 417a b4bd b4a3 94bd
000000c0: f0c6 3ebc 1cd4 d1bb 72c4 27bd 776e 913c
000000d0: 126c 6c3e 181e b73c 180a 53bd 48b1 86bd
000000e0: 5b95 cc3c 58d6 4fbd b237 95bc 22af e53d
000000f0: d938 77bd fc43 79bd c960 3d3e f0df 1d3e
00000100: f478 25bd a15e 86bd 585b 963c 5e6a 72bb
00000110: 9a3b b9bd 94a7 343e 7787 70bd da20 c7bd
00000120: f3d2 253d f366 ff3d 0e64 553e 167c 8cbd
00000130: 8ca7 19be eccc 4ebd 6fbc 933d d261 d83d
00000140: 2158 0c3b 812d 35bd dff8 e53d 21a6 523e
00000150: 2372 9dbd 6f12 3ebd 706a 9e3d be6b f1bd
00000160: e6ff 96bd 8349 d3bd 9a35 f3bd a770 cebc
00000170: 24f7 3ebe d88f b0bd 9768 57bc 4b19 043d
00000180: 0e7d b03d 6fc1 223d b4bd 6c3e 36dc 2a3e
00000190: b355 bdbd a4d2 70bd 263f 183e f250 c4bc
000001a0: e325 18bd 8dee 5e3d 07fd 91bd 5750 38bd
000001b0: 8f8b a63d 103d d3bd b21f 9f3d 86ac 913e
000001c0: 0ddc 123c 48fa a3bd 9123 d4bc 4606 edbd
000001d0: ed7a 9fbd bbaa 3ebd f76b c9bd bcb1 2fbe
000001e0: 2f86 09bd 8a33 0b3e 8a8a 133e 4aa5 fcbd
000001f0: c8b2 f83d 6c9b 46bd c692 80ba aa4a 393e
00000200: f08d 5c3e a3e2 aabc 1743 3a3c 1999 7fbd
00000210: b7b5 56bd 1965 d0bd e5ea 19be 665b a1bd
00000220: 6fea ba3d f8df 1b3e a7ea c4bd fe3a 833d
00000230: 5a1d c23d 237d 19be e143 353c f8e9 9c3d
00000240: 2bc9 abbd 293c 7cbd d30d e23d 232b 9ebd
00000250: 38aa 963d 9701 453e 02f1 2abd 6e85 5ebd
00000260: 2ff1 55bd 29e8 49bb a3f6 d1bd 0f07 33be
00000270: 975f 503d 14e8 89bd 94d6 e1bc 21ee 903d
00000280: b118 c33c 96e4 533e b9de 3d3e 9278 f13d
00000290: 3494 17be 49f1 0f3e 9515 b43d 0682 a0bd
000002a0: d4db 9bbd 5a16 9abc bf00 0fbe 2ec7 c3bd
000002b0: 063b 01be 654c ee3d 8874 2abe e547 73bd
000002c0: 2e4e 35bd 6f2c a53d 32fc 5c3b a648 233e
000002d0: c9e8 c53c 904d a0bd 451b f2bd ed48 763e
000002e0: dbc2 cc3d f9f4 e1bd 46b2 af3d fb7a e0bc
000002f0: 2a08 93bd 74d6 ab3d 900e e93c e52a 2fbe
00000300: 461c 613e 41be 8bbd e62f 39bd 1d81 81bd
00000310: 560f f9bd 884d a13d f0ab 003e 7b96 173e
00000320: 6e34 9bbd 5889 1a3d de10 aa3d 8b1e 75bd
00000330: 774a aebd dd82 42bd 081c c0bd 92cb c8bc
00000340: 64ea a9bd 8cc0 0fbe 6c4f dbbc 5aac 093c
00000350: 2693 fc3c 7a62 00be 7b82 fc3d 2cb8 583e
00000360: 143d acbd d774 d2bd 26a7 b4bd 6133 5c3d
00000370: 03a2 a13c e13e 04bd e7a1 073e 1453 6e3e
00000380: f593 d8bd 6ee2 0e3e d972 603e 05fc e53c
00000390: 6beb 30bd 959b 1e3c 4ddf 8fbc 970c 08be
000003a0: e992 dfbd 575e b4bd fd7c 05bc 52fa abbc
000003b0: 0a63 a0bd 2ac6 293e 9e8b f53d 825e a0bd
000003c0: 1e6a d73d 9f28 a43d 39cc 9abd 10d2 42be
000003d0: cd92 f83d 1cb0 11bc 721f 443e a35a f83d
000003e0: 8a80 cb3d 8969 a7bd 3045 193c a6f0 02be
000003f0: 98f4 e7bd 7e02 803b 494c a0bc 68f0 75bd

sequential_47/conv2d_85/Conv2D f4 [64, 3, 3, 32]
-0.08077104 0.07371754 -0.048708092 -0.0059906365 -0.10608129 -0.05829044 0.014905534 -0.0051973937
-0.08633727 -0.06047982 0.10879227 0.040174592 -0.09040499 -0.01197208 0.027498657 -0.003614622
0.08723727 0.075003654 -0.12625772 0.13453469 -0.13154185 -0.1373296 -0.12166909 -0.02727652
-0.06606053 -0.14748557 0.023609316 0.07056871 -0.024210706 0.0073901154 -0.16169252 0.027347527
-0.002418189 -0.013505336 0.04930896 -0.018999698 -0.13443072 0.03218218 -0.09748123 0.046784107
-0.017988002 -0.04425843 -0.059381828 0.011765717 0.06601164 -0.02343645 -0.014140676 -0.0836694
0.071684115 -0.087205425 0.028825538 0.041198336 0.044032432 0.0040104804 -0.025135392 0.013710014
0.053595312 0.072510295 -0.11506068 0.1105956 -0.010570173 0.03970144 0.07030485 0.054472018
-0.04877666 0.034977958 0.058121476 0.056138713 -0.012176778 0.04324938 -0.080995515 0.05983543
-0.07408805 -0.004196193 0.030593272 0.18548234 0.009213731 0.05959433 0.023045065 -0.020609632
0.030287677 -0.04468689 0.13292672 0.11187428 -8.165334e-05 0.11486722 0.12574807 -0.0047103856
0.03583702 0.011369741 0.05568406 -0.1427471 -0.009101099 0.060225967 -0.021029627 0.02893856
-0.25850537 -0.20055464 0.006194145 -0.10911365 -0.029937696 -0.044614233 0.009557673 -0.071759865
-0.057014138 0.016351623 -0.14141394 -0.1323007 -0.13347255 -0.11984384 0.07111374 -0.13806418
-0.08583476 -0.13380891 -0.04082742 -0.17798612 -0.15348475 -0.06683151 -0.06814593 -0.024122838
-0.09085273 -0.10498162 -0.062127125 -0.022363123 -0.14000228 -0.045462623 -0.0041102357 -0.043708656
-0.07455123 -0.09986922 -0.13611615 -0.09472382 0.023938889 -0.051224355 -0.050531887 -0.016162703
-0.07464623 0.06368608 -0.108048886 0.030287126 -0.07950124 0.033280663 0.02822602 0.025682408
0.047641713 0.113185085 0.06537309 0.061530396 -0.10644155 0.06964241 0.03828626 -0.10259824
0.024632374 0.14465891 -0.019938022 -0.093784824 -0.10188702 0.020590957 -0.051632233 -0.04726985
-0.21277311 -0.17796406 -0.039014056 -0.1207239 -0.13929039 -0.056409664 -0.059907656 -0.10132458
-0.124049634 -0.038901933 -0.035680085 0.021560233 -0.030843154 -0.087955214 0.010623632 -0.11599576
-0.10226326 -0.05507886 -0.007057883 0.07151097 0.0059840647 -0.0039116475 0.025341438 -0.040898874
0.058389593 0.04556045 -0.08787411 -0.1104745 -0.011238479 0.04275327 6.647411e-05 -0.097098015
-0.11534951 0.04483963 -0.011788404 -0.015406186 -0.09702873 0.049068425 0.19652873 0.04635543
-0.0016086441 -0.13580047 -0.10184213 -0.03671942 -0.14814512 0.008878961 0.034111366 -0.114785224
-0.10628075 -0.032370515 0.02240131 0.062418714 0.08494444 0.12912522 0.0018624233 0.06657393
-0.0015409108 0.08280456 -0.0021578886 -0.022024034 -0.084920004 0.0844304 -0.055633668 0.09112036
-0.09095478 -0.030259196 0.0021522425 -0.0305831 -0.09170216 0.015010114 0.013229997 -0.024655202
0.09566503 -0.024308048 -0.023220174 0.053216442 -0.11625024 -0.12230265 0.09696711 -0.051583834
-0.04249153 -0.09861389 0.008792607 -0.02435766 -0.12102131 -0.10734425 -0.012357175 -0.0527661
-0.027461076 0.10118803 0.054346986 -0.04687186 -0.16933584 0.12542695 0.082567535 -0.02435785
00000000: 496b a5bd 39f9 963d 2382 47bd 1a4d c4bb
00000010: 2641 d9bd f5c1 6ebd 5736 743c e64e aabb
00000020: 98d1 b0bd b0b9 77bd 7bce de3d 1d8e 243d
00000030: 4026 b9bd 8b26 44bc dd44 e13c 4be3 6cbb
00000040: 74a9 b23d 849b 993d b449 01be 76c3 093e
00000050: e8b2 06be 21a0 0cbe a52d f9bd 0273 dfbc
00000060: be4a 87bd 7506 17be 5368 c13c 5486 903d
00000070: 8855 c6bc c828 f23b b992 25be ec07 e03c
00000080: 7b7a 1ebb 7c45 5dbc 31f8 493d 41a5 9bbc
00000090: 35a8 09be 76d1 033d 3da4 c7bd b1a0 3f3d
000000a0: 935b 93bc 5448 35bd 5c3a 73bd fec4 403c
000000b0: 1c31 873d ccfd bfbc 4bae 67bc dd5a abbd
000000c0: 1fcf 923d c298 b2bd 8923 ec3c 96bf 283d
000000d0: 5a5b 343d 596a 833b bde8 cdbc f79f 603c
000000e0: c286 5b3d 4780 943d efa4 ebbd f27f e23d
000000f0: 852e 2dbc fa9d 223d fdfb 8f3d 0d1e 5f3d
00000100: 09ca 47bd 0c45 0f3d c910 6e3d b5f1 653d
00000110: 1c81 47bc 4326 313d fae0 a5bd ff15 753d
00000120: 7abb 97bd 3880 89bb be9e fa3c 15ef 3d3e
00000130: 30f5 163c 2f19 743d 01c9 bc3c 88d5 a8bc
00000140: dd1d f83c 9a09 37bd f11d 083e 581e e53d
00000150: 4e3d abb8 813f eb3d 1ac4 003e 9459 9abb
00000160: d7c9 123d 2648 3a3c f814 643d 4c2c 12be
00000170: c71c 15bc 81af 763d 5346 acbc 8f10 ed3c
00000180: d15a 84be 325e 4dbe 41f8 ca3b fa76 dfbd
00000190: e63f f5bc 6abd 36bd c997 1c3c d6f6 92bd
000001a0: a887 69bd d7f3 853c d1ce 10be d679 07be
000001b0: 07ad 08be b070 f5bd 15a4 913d b260 0dbe
000001c0: 22ca afbd 3405 09be a73a 27bd fe41 36be
000001d0: 1b2b 1dbe f5de 88bd 1890 8bbd 429d c5bc
000001e0: ff10 babd 9b00 d7bd 0379 7ebd de32 b7bc
000001f0: c25c 0fbe 0437 3abd 28af 86bb d907 33bd
00000200: 51ae 98bd 3c88 ccbd 0862 0bbe 90fe c1bd
00000210: 7d1b c43c a1d0 51bd 86fa 4ebd a567 84bc
00000220: 1fe0 98bd d96d 823d bc48 ddbd b51c f83c
00000230: 8cd1 a2bd 4e51 083d 413a e73c ea63 d23c
00000240: f523 433d 95cd e73d 54e2 853d 4c07 7c3d
00000250: 07fe d9bd aea0 8e3d 0ed2 1c3d 071f d2bd
00000260: d5c9 c93c 7721 143e 1055 a3bc 4212 c0bd
00000270: 24aa d0bd 5eae a83c 527c 53bd 089e 41bd
00000280: 32e1 59be 363c 36be 34cd 1fbd 183e f7bd
00000290: 24a2 0ebe d20d 67bd bb61 75bd 4383 cfbd
000002a0: bc0d febd a257 1fbd 4825 12bd 169f b03c
000002b0: c8aa fcbc dd21 b4bd be0e 2e3c 2f8f edbd
000002c0: 666f d1bd 5f9a 61bd d045 e7bb 5874 923d
000002d0: f915 c43b 472d 80bb d998 cf3c 9485 27bd
000002e0: ed29 6f3d 989d 3a3d 57f7 b3bd 7440 e2bd
000002f0: 9921 38bc 0e1e 2f3d 0468 8b38 53db c6bd
00000300: 5d3c ecbd c3a9 373d 2624 41bc 3a6a 7cbc
00000310: 00b7 c6bd f9fb 483d d43e 493e 31df 3d3d
00000320: 24d9 d2ba 470f 0bbe 9b92 d0bd 1a67 16bd
00000330: 5bb3 17be 1079 113c 5cb8 0b3d 8414 ebbd
00000340: b9a9 d9bd f296 04bd f482 b73c c4aa 7f3d
00000350: 5af7 ad3d 6739 043e 8e1c f43a ea57 883d
00000360: 63f8 c9ba 7095 a93d 5d6b 0dbb bf6b b4bc
00000370: 8aea adbd d8e9 ac3d 21e0 63bd 509d ba3d
00000380: 8046 babd 22e2 f7bc a30c 0d3b 6989 fabc
00000390: 58ce bbbd fbec 753c a1c2 583c b5f9 c9bc
000003a0: 07ec c33d ac21 c7bc 3c38 bebc 7cf9 593d
000003b0: 9b14 eebd d079 fabd b196 c63d 9249 53bd
000003c0: 990b 2ebd 14f6 c9bd de0e 103c b789 c7bc
000003d0: 05da f7bd 4dd7 dbbd c075 4abc 4421 58bd
000003e0: 0df6 e0bc ab3b cf3d f29a 5e3d b5fc 3fbd
000003f0: 6066 2dbe ec6f 003e 2b19 a93d 1d8a c7bc

sequential_47/prediction/BiasAdd/ReadVariableOp f4 [3]
0.16630696 -0.07669817 -0.048755288
00000000: 5f4c 2a3e ee13 9dbd a0b3 47bd

sequential_47/dense_53/BiasAdd/ReadVariableOp f4 [64]
-0.05845723 0.19744456 -0.050623924 -0.119189054 -0.06278096 -0.04992435 -0.04524385 0.10104182
-0.042014148 -0.078161314 -0.053229876 -0.026816837 0.03972891 0.019661538 -0.056898862 0.044774584
0.1509965 -0.0031924534 -0.070662245 0.065302484 -0.042075533 -0.03701703 -0.024507996 0.12938471
0.14391343 0.07866542 0.09390523 0.1313908 -0.04754375 -0.05858647 0.154817 -0.110821955
-0.011246558 0.03632533 0.12468125 -0.110416785 0.14739124 -0.05753461 -0.04287153 -0.027922856
0.027020354 0.069402866 0.089706585 -0.034235585 0.08377349 -0.11647951 -0.058642358 0.14079426
0.2162254 0.04514045 -0.047199067 0.06223647 0.12857987 0.06416113 0.12825915 0.01914996
0.05617181 -0.049813148 -0.11802716 -0.12207232 0.11252844 -0.06049364 0.06984662 0.091041334
00000000: d970 6fbd e82e 4a3e 085b 4fbd 6419 f4bd
00000010: 4e93 80bd 7a7d 4cbd 9e51 39bd 04ef ce3d
00000020: 0717 2cbd 0a13 a0bd 9207 5abd fcae dbbc
00000030: c8ba 223d 3c11 a13c c80e 69bd 8e65 373d
00000040: d49e 1a3e 7b38 51bb 5eb7 90bd 4fbd 853d
00000050: 6557 2cbd 2b9f 17bd fec4 c8bc 6d7d 043e
00000060: 0b5e 133e 561b a13d 6351 c03d 4f8b 063e
00000070: 3cbd 42bd 5ef8 6fbd 5988 1e3e 9ff6 e2bd
00000080: 7c43 38bc dfc9 143d e258 ff3d 3222 e2bd
00000090: bbed 163e 69a9 6bbd 0f9a 2fbd 79be e4bc
000000a0: ca59 dd3c 1723 8e3d 16b8 b73d 9d3a 0cbd
000000b0: 6f91 ab3d cf8c eebd f832 70bd 5f2c 103e
000000c0: 316a 5d3e 31e5 383d cf53 41bd abeb 7e3d
000000d0: 71aa 033e e966 833d 5e56 033e 60e0 9c3c
000000e0: 6914 663d df08 4cbd 39b8 f1bd 0d01 fabd
000000f0: 5075 e63d 2ec8 77bd bf0b 8f3d e173 ba3d

sequential_47/batch_normalization_85/FusedBatchNormV3 f4 [32]
3.9021885 2.523628 5.420933 6.761108 4.340462 11.112898 11.835132 6.4153647
5.0544434 7.942561 4.6431556 10.443964 6.176701 7.9682937 8.799999 3.8347373
8.862079 6.0470395 5.169237 6.448699 6.8117805 6.2098064 7.7755723 8.884682
5.7291083 7.2520742 4.542078 4.5987363 6.379047 10.286662 4.688465 10.512185
00000000: 75bd 7940 1f83 2140 4878 ad40 ff5a d840
00000010: 11e5 8a40 6ece 3141 b35c 3d41 ab4a cd40
00000020: 00be a140 7629 fe40 bb94 9440 7a1a 2741
00000030: 89a7 c540 43fc fe40 cccc 0c41 566c 7540
00000040: 13cb 0d41 5981 c140 646a a540 be5b ce40
00000050: 1bfa d940 bcb6 c640 7dd1 f840 a827 0e41
00000060: db54 b740 fe10 e840 b458 9140 d928 9340
00000070: 2721 cc40 2b96 2441 e807 9640 e931 2841

sequential_47/batch_normalization_85/FusedBatchNormV31 f4 [32]
-0.061921567 -0.4482344 -0.15585224 -0.3085438 -0.49211156 -0.21387744 -0.27344167 -0.34403038
-0.50972974 -0.23639287 -0.13804969 -0.21818134 0.17948756 -0.3384271 -0.3732851 -0.20009622
-0.28889805 -0.5047541 -0.3074075 -0.745985 -0.31177115 -0.45145074 -0.35333923 -0.21080998
-0.31935585 -0.36714026 -0.48844323 -0.4724617 -0.2610938 -0.31054142 -0.28511322 0.16464809
00000000: 78a1 7dbd fb7e e5be bb97 1fbe 74f9 9dbe
00000010: 0cf6 fbbe b002 5bbe 8c00 8cbe c024 b0be
00000020: a67d 02bf f910 72be e65c 0dbe ee6a 5fbe
00000030: 96cb 373e 5146 adbe 3a1f bfbe 06e6 4cbe
00000040: 72ea 93be 9137 01bf 8464 9dbe dff8 3ebf
00000050: 78a0 9fbe 8d24 e7be e1e8 b4be 92de 57be
00000060: 9c82 a3be cff9 bbbe 3b15 fabe 80e6 f1be
00000070: 16ae 85be 49ff 9ebe 5cfa 91be 8299 283e

sequential_47/dense_53/MatMul f4 [64, 256]
0.008623985 -0.081943125 0.010647281 -0.14266275 -0.16409008 0.018989284 -0.026736462 0.0011456283
-0.15077367 -0.11755946 0.04865384 -0.06698476 -0.0419995 -0.15188473 -0.169832 -0.014414964
-0.07996444 0.015629698 0.00074717577 0.096671775 0.08339032 -0.12744926 -0.06186589 -0.16685534
0.100604 -0.0046236855 0.031176273 -0.13544613 -0.17077851 -0.02762405 0.052604917 0.063098766
0.051897213 -0.031122463 0.033891667 -0.029894197 0.009322271 -0.21648139 -0.10073182 -0.1170745
0.066052444 0.060743034 -0.13040288 -0.15119247 -0.17918889 0.045414787 -0.117557146 0.044938173
-0.14986129 -0.0671973 -0.19584684 0.060232848 0.0114323255 -0.018534267 -0.014255146 0.029358234
0.00128073 -0.030647969 -0.028637016 0.030627243 0.0875822 -0.12444716 0.007763748 -0.18345892
-0.20889685 -0.13768622 -0.06849048 0.049161218 -0.10539561 0.00051808887 -0.048978448 -0.08149017
-0.0871024 -0.10932979 -0.15355621 0.011433462 0.054124475 -0.07458248 -0.18550575 -0.028836109
-0.06828206 0.0794434 -0.048481986 0.0706132 -0.14446157 -0.18008517 -0.04425045 -0.12126359
-0.026329651 0.033811085 0.022909759 -0.04415781 -0.047039263 0.024629632 -0.0065675504 0.036893185
0.0056910915 -0.16048294 -0.21187934 -0.0035466067 -0.08246543 -0.02203212 -0.017084764 -0.1447153
0.08596098 -0.022494145 -0.01873603 -0.1445853 -0.10433108 -0.13149242 -0.09588006 0.074007265
-0.046831015 -0.058729563 -0.0069320635 -0.062374517 0.09210329 0.0730026 -0.16232215 -0.17091803
-0.17620625 0.006335943 0.008538707 0.02756023 -0.085958816 -0.1484233 -0.14220634 -0.08496967
-0.09217074 -0.067387074 -0.005256737 0.10429935 0.06805895 -0.13016409 0.0008920438 0.0541762
-0.16075158 -0.030926984 -0.18197627 -0.06306846 0.04653633 -0.077741034 0.061844442 -0.09469752
-0.10615522 -0.057220094 0.0014471938 -0.1123372 -0.140433 0.102664515 -0.12751815 -0.1355784
-0.0005801098 -0.07687586 -0.09851665 0.12985824 0.078410715 -0.031551905 0.13614827 -0.061974365
0.008819319 0.0635694 0.07233387 0.021326581 0.07166713 -0.14638323 -0.0481495 -0.04558363
0.09995198 -0.050585695 -0.13904175 -0.13782403 0.10178416 -0.048060276 -0.06376979 0.047486413
0.060643334 -0.025359768 -0.14892928 -0.05874443 -0.09024528 -0.07718931 0.16104253 0.015698032
0.09107111 -0.08711367 -0.025822772 0.080841094 -0.024352482 -0.10011192 0.08698472 0.012964962
-0.0053673084 -0.0053081387 0.058907583 -0.050589398 -0.13048224 -0.12631837 -0.074989974 -0.1824025
-0.111869 0.053101875 0.02021091 -0.032352112 0.07609122 -0.17131802 0.056269646 0.048587464
0.0010826802 -0.11815942 -0.092773855 -0.109096974 -0.012291433 0.10310794 -0.14956139 -0.09241383
-0.08996136 -0.16615978 0.0060509597 -0.14615442 -0.12172938 0.053459976 0.062263913 -0.0017464203
-0.1324818 -0.05973906 -0.047835328 0.021210715 -0.072991095 -0.08582859 -0.063201815 -0.078492194
0.12212704 -0.14190443 -0.029133627 -0.13993803 -0.0038958357 -0.07858892 0.0046971184 -0.11178793
-0.10835682 -0.012345347 -0.010733778 -0.025214672 -0.08673808 0.071230635 0.010170966 0.09407766
-0.045000013 0.03127785 -0.0016408535 -0.17054608 -0.009472633 0.07684307 0.038681738 -0.037111063
00000000: 9d4b 0d3c ccd1 a7bd ef71 2e3c 2f16 12be
00000010: 3b07 28be 6a8f 9b3c 6d06 dbbc e828 963a
00000020: 6a64 1abe 04c3 f0bd 4049 473d 4e2f 89bd
00000030: ab07 2cbd ac87 1bbe 71e8 2dbe be2c 6cbc
00000040: 65c4 a3bd da09 803c 1ede 433a dafb c53d
00000050: 8bc8 aa3d 0f82 02be 1667 7dbd 20dc 2abe
00000060: 7809 ce3d 4982 97bb 6265 ff3c 64b2 0abe
00000070: 90e0 2ebe d54b e2bc 4178 573d ed39 813d
00000080: 2c92 543d 89f4 febc fdd1 0a3d ade4 f4bc
00000090: 70bc 183c 4cad 5dbe 7c4c cebd c1c4 efbd
000000a0: 8146 873d b0cd 783d 5588 05be 33d2 1abe
000000b0: 4b7d 37be db04 3a3d cdc1 f0bd 1711 383d
000000c0: 3d75 19be bd9e 89bd 138c 48be b8b6 763d
000000d0: a64e 3b3c 2dd5 97bc 6a8e 69bc ae80 f03c
000000e0: 2bde a73a 7311 fbbc 2d98 eabc fce5 fa3c
000000f0: 4c5e b33d 27de febd 0a67 fe3b a8dc 3bbe
00000100: 0ee9 55be 9efd 0cbe bd44 8cbd 465d 493d
00000110: a7d9 d7bd 5bd0 073a a09d 48bd 51e4 a6bd
00000120: be62 b2bd 4ce8 dfbd d73d 1dbe 6a53 3b3c
00000130: a0b1 5d3d b3be 98bd 38f5 3dbe b439 ecbc
00000140: 77d7 8bbd 39b3 a23d 0c95 46bd a79d 903d
00000150: bced 13be 3f68 38be f63f 35bd 0c59 f8bd
00000160: 48b1 d7bc 7e7d 0a3d 3fad bb3c d2de 34bd
00000170: 3eac 40bd 15c4 c93c 9b34 d7bb 4f1d 173d
00000180: 567c ba3b a455 24be e6f6 58be 306e 68bb
00000190: a3e3 a8bd b47c b4bc 59f5 8bbc 3f30 14be
000001a0: 4f0c b03d a445 b8bc 4e7c 99bc 2b0e 14be
000001b0: 89ab d5bd f3a5 06be c45c c4bd 1f91 973d
000001c0: e1d1 3fbd 698e 70bd 5d26 e3bb 6c7c 7fbd
000001d0: a6a0 bc3d 6382 953d c737 26be 2305 2fbe
000001e0: 696f 34be be9d cf3b efe5 0b3c fec5 e13c
000001f0: 2d0b b0bd 47fc 17be 8a9e 11be 9404 aebd
00000200: 03c4 bcbd 3c02 8abd b540 acbb e69a d53d
00000210: 7e62 8b3d bc49 05be 0cd8 693a dde7 5d3d
00000220: 109c 24be 965a fdbc fd57 3abe 092a 81bd
00000230: e19c 3e3d b136 9fbd 9950 7d3d c6f0 c1bd
00000240: e867 d9bd 9e5f 6abd c4af bd3a 0c11 e6bd
00000250: abcd 0fbe c641 d23d 1e94 02be 10d5 0abe
00000260: 8212 18ba 1771 9dbd 19c3 c9bd 8ff9 043e
00000270: cc95 a03d 923c 01bd 746a 0b3e d5d8 7dbd
00000280: e87e 103c ac30 823d c823 943d 15b5 ae3c
00000290: 37c6 923d 7ce5 15be 6938 45bd e7b5 3abd
000002a0: a0b3 cc3d f232 4fbd f660 0ebe be21 0dbe
000002b0: 3774 d03d dada 44bd bc99 82bd 1d81 423d
000002c0: 2565 783d 4abf cfbc eb80 18be 009e 70bd
000002d0: 84d2 b8bd 6e15 9ebd 55e8 243e 2999 803c
000002e0: 7d83 ba3d a768 b2bd 478a d3bc 0490 a53d
000002f0: db7e c7bc 7a07 cdbd 0b25 b23d fe6a 543c
00000300: 3fe0 afbb e5ef adbb 1449 713d d436 4fbd
00000310: 239d 05be 9a59 01be 5894 99bd b9c7 3abe
00000320: 931b e5bd 5a81 593d 5a91 a53c a683 04bd
00000330: b7d5 9b3d fe6d 2fbe 007b 663d a603 473d
00000340: b8e8 8d3a 91fd f1bd 3800 bebd 3c6e dfbd
00000350: 0262 49bc 412a d33d 9f26 19be 7643 bdbd
00000360: a93d b8bd ca25 2abe 2147 c63b 81a9 15be
00000370: 414d f9bd d9f8 5a3d 7208 7f3d 24e8 e4ba
00000380: 4fa9 07be f2b0 74bd faee 43bd 18c2 ad3c
00000390: 5b7c 95bd e6c6 afbd f46f 81bd 84c0 a0bd
000003a0: be1d fa3d 654f 11be a5a9 eebc ea4b 0fbe
000003b0: 4751 7fbb 3af3 a0bd 49ea 993b 12f1 e4bd
000003c0: 2eea ddbd 2344 4abc badc 2fbc 008f cebc
000003d0: bca3 b1bd 5ee1 913d 20a4 263c caab c03d
000003e0: ef51 38bd 341d 003d e811 d7ba a2a3 2ebe
000003f0: 1a33 1bbc e65f 9d3d be70 1e3d c501 18bd

sequential_47/prediction/MatMul f4 [3, 64]
0.033675373 -0.041127905 -0.185538 -0.3484871 -0.24504632 -0.10730009 -0.16852616 0.08194521
-0.30174816 -0.16584685 0.27673796 -0.047550168 0.18425503 0.013355491 -0.09247937 0.21968901
0.08120928 -0.27579242 -0.11560011 0.20975325 0.076032825 -0.09467272 0.108031295 0.18634978
0.19110686 0.10241324 0.035031132 0.12769556 0.02197081 -0.1737093 0.18793279 -0.39142573
-0.097637765 -0.12578446 0.25697464 -0.24328056 0.18249246 -0.14133038 0.14846963 -0.2792452
0.17825107 0.11722183 0.0036231263 0.2519395 0.26830646 -0.022787537 -0.1435392 0.007920051
-0.12870394 -0.2401843 -0.083770595 0.18823501 0.2109232 0.16924287 -0.10316359 -0.22331306
-0.28336993 0.14659265 -0.17611848 -0.23155957 0.11391436 -0.003970228 0.029545264 0.17220777
0.22652043 -0.116331 -0.0396422 -0.07213275 -0.16098212 0.0519148 0.15525168 0.079742506
0.2801988 0.30204085 -0.23489203 -0.27884933 0.18068057 0.0102143735 -0.039980706 0.15224838
-0.10735552 -0.030380834 0.08902482 0.020973293 -0.08512396 -0.11076438 -0.06414625 0.09813888
-0.034350973 0.13576768 -0.16734526 -0.117259346 -0.104122356 -0.003419068 0.046691716 -0.17814988
-0.13561924 0.0010627828 0.0488571 0.05353422 0.108057 0.21195453 -0.23620914 0.034179423
0.15533297 0.092870705 -0.23189318 -0.20722993 0.25136533 0.2402295 0.17915718 -0.028693633
-0.21592596 0.06307976 0.23923485 0.15059246 -0.032209944 -0.17825264 -0.1300742 -0.06344374
-0.25409013 -0.19596158 0.1261408 0.050335623 -0.05978687 0.1384941 0.1777972 0.20066096
-0.12363592 -0.21371634 -0.14666124 -0.06865789 0.14780456 0.08773279 0.03464176 -0.029355066
-0.10287242 0.23960079 0.11917387 -0.040679917 0.03627751 -0.11715091 0.20406182 0.071223676
-0.15108722 0.031085575 -0.037746623 -0.10070233 0.23095724 -0.044719785 -0.058124363 0.0024397548
-0.07792351 0.2569926 -0.15863095 -0.1345481 0.10635415 -0.070301645 -0.0077346656 -0.17336723
0.17413999 0.11197987 0.08108102 0.062197745 -0.065071024 0.1601574 -0.1125023 -0.03554077
0.026349915 0.0031339985 -0.2799554 0.23111874 0.16210611 0.23446941 0.07114243 -0.20670693
-0.33128995 0.1877374 0.03175342 0.02591524 -0.06299675 -0.30086464 -0.26308566 0.03440501
-0.10363268 0.05085829 0.11311784 0.06802495 -0.118981384 0.036055483 0.28099453 0.29600546
00000000: 30ef 093d bc75 28bd acfd 3dbe e76c b2be
00000010: 6ced 7abe 26c0 dbbd 1f92 2cbe e4d2 a73d
00000020: bc7e 9abe c2d3 29be 99b0 8d3e f7c3 42bd
00000030: 5aad 3c3e fdd0 5a3c d365 bdbd 28f6 603e
00000040: 0d51 a63d aa34 8dbe c0bf ecbd 8ec9 563e
00000050: 19b7 9b3d c5e3 c1bd 833f dd3d 7ad2 3e3e
00000060: 84b1 433e 08be d13d ce7c 0f3d a0c2 023e
00000070: 21fc b33c dae0 31be 7471 403e f468 c8be
00000080: 4ff6 c7bd a4cd 00be 2e92 833e 8a1e 79be
00000090: 4edf 3a3e e9b8 10be 6c08 183e 3af9 8ebe
000000a0: 7387 363e 0012 f03d f971 6d3b 37fe 803e
000000b0: 775f 893e eeac babc f1fb 12be 1ac3 013c
000000c0: f7ca 03be e0f2 75be eb8f abbd aec0 403e
000000d0: 40fc 573e 014e 2d3e 6f47 d3bd 2eac 64be
000000e0: dd15 91be 621c 163e 6758 34be f41d 6dbe
000000f0: ef4b e93d b018 82bb e908 f23c 3c57 303e
00000100: f9f4 673e f33e eebd dc5f 22bd 56ba 93bd
00000110: 7fd8 24be 9da4 543d 4cfa 1e3e 0a50 a33d
00000120: 3876 8f3e 19a5 9a3e 8987 70be 57c5 8ebe
00000130: 5404 393e 305a 273c cfc2 23bd 00e7 1b3e
00000140: 36dd dbbd 3ae1 f8bc a552 b63d 2fd0 ab3c
00000150: 7955 aebd 6fd8 e2bd 1c5f 83bd 0afd c83d
00000160: 9bb3 0cbd af06 0b3e 8e5c 2bbe ab25 f0bd
00000170: 1a3e d5bd 7112 60bb d03f 3f3d ec6c 36be
00000180: c5df 0abe 134d 8b3a 621e 483d b346 5b3d
00000190: fd4c dd3d 9c0a 593e cfe0 71be b9ff 0b3d
000001a0: 9b0f 1f3e ff32 be3d 6875 6dbe 1534 54be
000001b0: f5b2 803e b9fe 753e fb74 373e e90e ebbc
000001c0: b21b 5dbe f62f 813d fbf9 743e e934 1a3e
000001d0: 93ee 03bd dc87 36be 2c32 05be cbee 81bd
000001e0: 1a18 82be 27aa 48be 0e2b 013e ba2c 4e3d
000001f0: 14e3 74bd 66d1 0d3e 7810 363e 117a 4d3e
00000200: d434 fdbd 75d8 5abe 5d2e 16be 829c 8cbd
00000210: 145a 173e 40ad b33d 85e4 0d3d 097a f0bc
00000220: c6ae d2bd e959 753e 6e11 f43d fc9f 26bd
00000230: ba97 143d d1ec efbd 95f5 503e b8dd 913d
00000240: 9cb6 1abe 2da7 fe3c 349c 1abd 063d cebd
00000250: 0e80 6c3e 182c 37bd d013 6ebd 4be4 1f3b
00000260: 5c96 9fbd 8994 833e 2770 22be fac6 09be
00000270: 34d0 d93d 4ffa 8fbd 1473 fdbb 2e87 31be
00000280: c151 323e b455 e53d ce0d a63d 10c3 7e3d
00000290: f543 85bd 4d00 243e 9b67 e6bd 3393 11bd
000002a0: c7db d73c c563 4d3b 5056 8fbe 64aa 6c3e
000002b0: 25ff 253e c018 703e 1fb3 913d fbaa 53be
000002c0: d69e a9be 3c3e 403e e00f 023d 334c d43c
000002d0: 7104 81bd ee0a 9abe 2ab3 86be 45ec 0c3d
000002e0: 5f3d d4bd c850 503d 53aa e73d aa50 8b3d
000002f0: 83ac f3bd eaae 133d 84de 8f3e 078e 973e
