training/models/model_quant.tflite (tflite, 45032 bytes, 6 tensors)

sequential_47/prediction/MatMul i1 [3, 64] scale=0.0030820924 zero_point=0
0.033903018 -0.0400672 -0.18492554 -0.34827644 -0.2465674 -0.10787323 -0.16951509 0.083216496
-0.30204505 -0.16643299 0.2773883 -0.046231385 0.18492554 0.01232837 -0.09246277 0.21882856
0.0801344 -0.2743062 -0.11711951 0.20958228 0.07705231 -0.09554487 0.10787323 0.18492554
0.19108973 0.101709045 0.033903018 0.12636578 0.021574646 -0.17259717 0.18800764 -0.39142573
-0.09862696 -0.12636578 0.25581366 -0.2434853 0.18184344 -0.14177625 0.14794043 -0.2804704
0.17876136 0.11711951 0.0030820924 0.25273156 0.26814204 -0.021574646 -0.14485835 0.009246277
-0.12944788 -0.2404032 -0.083216496 0.18800764 0.20958228 0.16951509 -0.101709045 -0.22191066
-0.2835525 0.14794043 -0.17567927 -0.23115693 0.11403742 -0.0030820924 0.030820925 0.17259717
0.22499274 -0.11711951 -0.0400672 -0.070888124 -0.1602688 0.05239557 0.15410462 0.0801344
0.2804704 0.30204505 -0.23423903 -0.2773883 0.18184344 0.009246277 -0.0400672 0.15102252
-0.10787323 -0.030820925 0.08938068 0.021574646 -0.086298585 -0.11095533 -0.06472394 0.09862696
-0.033903018 0.13561207 -0.16643299 -0.11711951 -0.10479114 -0.0030820924 0.046231385 -0.17876136
-0.13561207 0.0 0.04931348 0.05239557 0.10787323 0.21266438 -0.23732111 0.033903018
0.15410462 0.09246277 -0.23115693 -0.20650019 0.25273156 0.2404032 0.17876136 -0.027738832
-0.21574646 0.06164185 0.2404032 0.15102252 -0.030820925 -0.17876136 -0.12944788 -0.06472394
-0.25273156 -0.19725391 0.12636578 0.04931348 -0.058559757 0.13869415 0.17876136 0.20033601
-0.1232837 -0.21266438 -0.14794043 -0.067806035 0.14794043 0.086298585 0.033903018 -0.030820925
-0.101709045 0.2404032 0.1202016 -0.0400672 0.036985107 -0.11711951 0.20341809 0.070888124
-0.15102252 0.030820925 -0.036985107 -0.101709045 0.23115693 -0.046231385 -0.058559757 0.0030820924
-0.07705231 0.25581366 -0.15718672 -0.13561207 0.10787323 -0.070888124 -0.009246277 -0.17259717
0.17567927 0.11095533 0.0801344 0.06164185 -0.06472394 0.1602688 -0.11403742 -0.036985107
0.027738832 0.0030820924 -0.2804704 0.23115693 0.1633509 0.23423903 0.070888124 -0.20650019
-0.3297839 0.18800764 0.030820925 0.02465674 -0.06164185 -0.30204505 -0.26197785 0.033903018
-0.10479114 0.05239557 0.11403742 0.067806035 -0.1202016 0.036985107 0.2804704 0.29588085
00000000: 0bf3 c48f b0dd c91b 9eca 5af1 3c04 e247
00000010: 1aa7 da44 19e1 233c 3e21 0b29 07c8 3d81
00000020: e0d7 53b1 3bd2 30a5 3a26 0152 57f9 d103
00000030: d6b2 e53d 4437 dfb8 a430 c7b5 25ff 0a38
00000040: 49da f3e9 cc11 321a 5b62 b4a6 3b03 f331
00000050: ddf6 1d07 e4dc eb20 f52c cada deff 0fc6
00000060: d400 1011 2345 b30b 321e b5bd 524e 3af7
00000070: ba14 4e31 f6c6 d6eb aec0 2910 ed2d 3a41
00000080: d8bb d0ea 301c 0bf6 df4e 27f3 0cda 4217
00000090: cf0a f4df 4bf1 ed01 e753 cdd4 23e9 fdc8
000000a0: 3924 1a14 eb34 dbf4 0901 a54b 354c 17bd
000000b0: 953d 0a08 ec9e ab0b de11 2516 d90c 5b60

sequential_47/dense_53/MatMul i1 [64, 256] scale=0.004866943 zero_point=0
0.009733886 -0.082738034 0.009733886 -0.14114136 -0.16547607 0.019467773 -0.024334716 0.0
-0.15087524 -0.11680664 0.04866943 -0.068137206 -0.04380249 -0.15087524 -0.17034301 -0.01460083
-0.07787109 0.01460083 0.0 0.09733886 0.082738034 -0.12654053 -0.06327026 -0.16547607
0.102205805 -0.004866943 0.02920166 -0.13627441 -0.17034301 -0.02920166 0.053536374 0.06327026
0.053536374 -0.02920166 0.034068603 -0.02920166 0.009733886 -0.2141455 -0.102205805 -0.11680664
0.068137206 0.05840332 -0.13140747 -0.15087524 -0.1800769 0.04380249 -0.11680664 0.04380249
-0.15087524 -0.068137206 -0.19467773 0.05840332 0.009733886 -0.019467773 -0.01460083 0.02920166
0.0 -0.02920166 -0.02920166 0.02920166 0.08760498 -0.12654053 0.009733886 -0.18494384
-0.20927855 -0.13627441 -0.068137206 0.04866943 -0.10707275 0.0 -0.04866943 -0.082738034
-0.08760498 -0.10707275 -0.15574218 0.009733886 0.053536374 -0.07300415 -0.18494384 -0.02920166
-0.068137206 0.07787109 -0.04866943 0.07300415 -0.1460083 -0.1800769 -0.04380249 -0.121673584
-0.024334716 0.034068603 0.024334716 -0.04380249 -0.04866943 0.024334716 -0.004866943 0.038935546
0.004866943 -0.16060913 -0.2141455 -0.004866943 -0.082738034 -0.024334716 -0.019467773 -0.1460083
0.08760498 -0.024334716 -0.019467773 -0.1460083 -0.102205805 -0.13140747 -0.09733886 0.07300415
-0.04866943 -0.05840332 -0.004866943 -0.06327026 0.09247192 0.07300415 -0.16060913 -0.17034301
-0.17520995 0.004866943 0.009733886 0.02920166 -0.08760498 -0.1460083 -0.14114136 -0.082738034
-0.09247192 -0.068137206 -0.004866943 0.102205805 0.068137206 -0.13140747 0.0 0.053536374
-0.16060913 -0.02920166 -0.1800769 -0.06327026 0.04866943 -0.07787109 0.06327026 -0.09247192
-0.10707275 -0.05840332 0.0 -0.11193969 -0.14114136 0.102205805 -0.12654053 -0.13627441
0.0 -0.07787109 -0.09733886 0.13140747 0.07787109 -0.02920166 0.13627441 -0.06327026
0.009733886 0.06327026 0.07300415 0.019467773 0.07300415 -0.1460083 -0.04866943 -0.04380249
0.102205805 -0.04866943 -0.14114136 -0.13627441 0.102205805 -0.04866943 -0.06327026 0.04866943
0.05840332 -0.024334716 -0.15087524 -0.05840332 -0.09247192 -0.07787109 0.16060913 0.01460083
0.09247192 -0.08760498 -0.024334716 0.082738034 -0.024334716 -0.102205805 0.08760498 0.01460083
-0.004866943 -0.004866943 0.05840332 -0.04866943 -0.13140747 -0.12654053 -0.07300415 -0.1800769
-0.11193969 0.053536374 0.019467773 -0.034068603 0.07787109 -0.17034301 0.05840332 0.04866943
0.0 -0.11680664 -0.09247192 -0.10707275 -0.01460083 0.102205805 -0.15087524 -0.09247192
-0.08760498 -0.16547607 0.004866943 -0.1460083 -0.121673584 0.053536374 0.06327026 0.0
-0.13140747 -0.05840332 -0.04866943 0.019467773 -0.07300415 -0.08760498 -0.06327026 -0.07787109
0.121673584 -0.14114136 -0.02920166 -0.14114136 -0.004866943 -0.07787109 0.004866943 -0.11193969
-0.10707275 -0.01460083 -0.009733886 -0.024334716 -0.08760498 0.07300415 0.009733886 0.09247192
-0.04380249 0.02920166 0.0 -0.17034301 -0.009733886 0.07787109 0.038935546 -0.038935546
00000000: 02ef 02e3 de04 fb00 e1e8 0af2 f7e1 ddfd
00000010: f003 0014 11e6 f3de 15ff 06e4 ddfa 0b0d
00000020: 0bfa 07fa 02d4 ebe8 0e0c e5e1 db09 e809
00000030: e1f2 d80c 02fc fd06 00fa fa06 12e6 02da
00000040: d5e4 f20a ea00 f6ef eeea e002 0bf1 dafa
00000050: f210 f60f e2db f7e7 fb07 05f7 f605 ff08
00000060: 01df d4ff effb fce2 12fb fce2 ebe5 ec0f
00000070: f6f4 fff3 130f dfdd dc01 0206 eee2 e3ef
00000080: edf2 ff15 0ee5 000b dffa dbf3 0af0 0ded
00000090: eaf4 00e9 e315 e6e4 00f0 ec1b 10fa 1cf3
000000a0: 020d 0f04 0fe2 f6f7 15f6 e3e4 15f6 f30a
000000b0: 0cfb e1f4 edf0 2103 13ee fb11 fbeb 1203
000000c0: ffff 0cf6 e5e6 f1db e90b 04f9 10dd 0c0a
000000d0: 00e8 edea fd15 e1ed eede 01e2 e70b 0d00
000000e0: e5f4 f604 f1ee f3f0 19e3 fae3 fff0 01e9
000000f0: eafd fefb ee0f 0213 f706 00dd fe10 08f8

sequential_47/conv2d_85/Conv2D i1 [64, 3, 3, 32]
-40 36 -24 -3 -52 -29 7 -3
-42 -30 53 20 -44 -6 14 -2
43 37 -62 66 -65 -67 -60 -13
-32 -72 12 35 -12 4 -79 13
-1 -7 24 -9 -66 16 -48 23
-9 -22 -29 6 32 -12 -7 -41
35 -43 14 20 22 2 -12 7
26 36 -57 54 -5 20 35 27
-24 17 29 28 -6 21 -40 29
-36 -2 15 91 5 29 11 -10
15 -22 65 55 0 56 62 -2
18 6 27 -70 -4 30 -10 14
-127 -99 3 -54 -15 -22 5 -35
-28 8 -69 -65 -66 -59 35 -68
-42 -66 -20 -87 -75 -33 -33 -12
-45 -52 -31 -11 -69 -22 -2 -21
-37 -49 -67 -47 12 -25 -25 -8
-37 31 -53 15 -39 16 14 13
23 56 32 30 -52 34 19 -50
12 71 -10 -46 -50 10 -25 -23
-105 -87 -19 -59 -68 -28 -29 -50
-61 -19 -18 11 -15 -43 5 -57
-50 -27 -3 35 3 -2 12 -20
29 22 -43 -54 -6 21 0 -48
-57 22 -6 -8 -48 24 97 23
-1 -67 -50 -18 -73 4 17 -56
-52 -16 11 31 42 63 1 33
-1 41 -1 -11 -42 41 -27 45
-45 -15 1 -15 -45 7 6 -12
47 -12 -11 26 -57 -60 48 -25
-21 -48 4 -12 -59 -53 -6 -26
-13 50 27 -23 -83 62 41 -12
00000000: d824 e8fd cce3 07fd d6e2 3514 d4fa 0efe
00000010: 2b25 c242 bfbd c4f3 e0b8 0c23 f404 b10d
00000020: fff9 18f7 be10 d017 f7ea e306 20f4 f9d7
00000030: 23d5 0e14 1602 f407 1a24 c736 fb14 231b
00000040: e811 1d1c fa15 d81d dcfe 0f5b 051d 0bf6
00000050: 0fea 4137 0038 3efe 1206 1bba fc1e f60e
00000060: 819d 03ca f1ea 05dd e408 bbbf bec5 23bc
00000070: d6be eca9 b5df dff4 d3cc e1f5 bbea feeb
00000080: dbcf bdd1 0ce7 e7f8 db1f cb0f d910 0e0d
00000090: 1738 201e cc22 13ce 0c47 f6d2 ce0a e7e9
000000a0: 97a9 edc5 bce4 e3ce c3ed ee0b f1d5 05c7
000000b0: cee5 fd23 03fe 0cec 1d16 d5ca fa15 00d0
000000c0: c716 faf8 d018 6117 ffbd ceee b704 11c8
000000d0: ccf0 0b1f 2a3f 0121 ff29 fff5 d629 e52d
000000e0: d3f1 01f1 d307 06f4 2ff4 f51a c7c4 30e7
000000f0: ebd0 04f4 c5cb fae6 f332 1be9 ad3e 29f4

sequential_47/batch_normalization_85/FusedBatchNormV31 i1 [32] scale=0.003629304 zero_point=78
-0.06169817 -0.4500337 -0.15606007 -0.30849084 -0.49358535 -0.21412894 -0.2721978 -0.34478387
-0.50810254 -0.23590475 -0.13791355 -0.21775824 0.1778359 -0.33752528 -0.3738183 -0.19961172
-0.29034433 -0.50447327 -0.30849084 -0.7476366 -0.31212014 -0.4500337 -0.3520425 -0.21049963
-0.31937876 -0.3665597 -0.48995605 -0.4718095 -0.2613099 -0.31212014 -0.28671503 0.16331868
00000000: 3dd2 23f9 c613 03ef c20d 2812 7ff1 e717
00000010: fec3 f980 f8d2 ed14 f6e9 c7cc 06f8 ff7b

sequential_47/batch_normalization_85/FusedBatchNormV3 i1 [32] scale=0.04641228 zero_point=-128
3.8986316 2.5062633 5.430237 6.776193 4.3627543 11.092535 11.835132 6.404895
5.0589385 7.9365 4.641228 10.442763 6.1728334 7.9829125 8.818334 3.8522193
8.864746 6.0335965 5.1517634 6.4513073 6.8226056 6.219246 7.797263 8.864746
5.7087107 7.240316 4.5484037 4.5948157 6.3584824 10.303527 4.6876407 10.489176
00000000: d4b6 f512 de6f 7f0a ed2b e461 052c 3ed3
00000010: 3f02 ef0b 1306 283f fb1c e2e3 095e e562

sequential_47/conv2d_84/Conv2D i1 [32, 3, 3, 1]
-43 1 -86 124 127 10 -9 14
-45 -19 -59 26 -7 28 96 -40
8 127 -66 -17 -77 -21 26 -29
-45 -53 -127 -31 19 -14 -94 127
31 -86 0 8 78 47 -19 -53
17 127 -52 -72 -1 -26 -48 -40
-6 -4 -23 10 127 12 -35 -45
17 -35 -13 77 -41 -42 127 111
-29 -47 13 -3 -65 127 -42 -70
25 76 127 -42 -91 -31 44 64
1 -27 69 127 -47 -29 48 -73
-46 -64 -65 -14 -102 -47 -7 18
47 22 127 127 -70 -45 113 -18
-28 41 -54 -34 36 -46 35 127
4 -36 -12 -52 -35 -34 -73 -127
-25 101 107 -91 90 -36 -1 107
127 -12 7 -37 -31 -60 -89 -66
76 127 -80 53 79 -125 9 64
-55 -41 73 -51 49 127 -28 -36
-34 -2 -63 -107 31 -41 -17 43
15 127 127 81 -101 96 60 -54
-52 -13 -96 -73 -96 89 -127 -45
-34 62 3 122 13 -41 -62 127
53 -58 45 -14 -38 48 16 -99
127 -39 -26 -37 -70 46 108 127
-65 32 71 -51 -73 -41 -80 -15
-50 -84 -16 5 19 -75 74 127
-46 -56 -48 29 11 -18 72 127
-58 81 127 16 -25 6 -10 -77
-63 -51 -6 -16 -60 127 92 -60
81 61 -58 -126 80 -6 127 80
66 -54 6 -85 -66 2 -11 -35
00000000: d501 aa7c 7f0a f70e d3ed c51a f91c 60d8
00000010: 087f beef b3eb 1ae3 d3cb 81e1 13f2 a27f
00000020: 1faa 0008 4e2f edcb 117f ccb8 ffe6 d0d8
00000030: fafc e90a 7f0c ddd3 11dd f34d d7d6 7f6f
00000040: e3d1 0dfd bf7f d6ba 194c 7fd6 a5e1 2c40
00000050: 01e5 457f d1e3 30b7 d2c0 bff2 9ad1 f912
00000060: 2f16 7f7f bad3 71ee e429 cade 24d2 237f
00000070: 04dc f4cc ddde b781 e765 6ba5 5adc ff6b
00000080: 7ff4 07db e1c4 a7be 4c7f b035 4f83 0940
00000090: c9d7 49cd 317f e4dc defe c195 1fd7 ef2b
000000a0: 0f7f 7f51 9b60 3cca ccf3 a0b7 a059 81d3
000000b0: de3e 037a 0dd7 c27f 35c6 2df2 da30 109d
000000c0: 7fd9 e6db ba2e 6c7f bf20 47cd b7d7 b0f1
000000d0: ceac f005 13b5 4a7f d2c8 d01d 0bee 487f
000000e0: c651 7f10 e706 f6b3 c1cd faf0 c47f 5cc4
000000f0: 513d c682 50fa 7f50 42ca 06ab be02 f5dd
